checkpoint.pth (torch_old, 28735 bytes, 8 tensors)

model.0.0.0.0.weight f4 [64, 37]
0	0x3e56d8cc	0.20981139
1	0xbd917937	-0.07103198
2	0x3dd83684	0.10557273
3	0x3e483e3b	0.19554989
4	0x3e4869ba	0.19571581
5	0xbcfc1f3a	-0.030776609
6	0x3dfa2b67	0.122153096
7	0x3d7b09b8	0.061288565
8	0xbd7cb1f2	-0.06169314
9	0x3f3bbbc0	0.7333336
10	0x3e211069	0.15728916
11	0xbc461424	-0.012089763
12	0xbd883dd2	-0.06652416
13	0x3d934c46	0.071922824
14	0x3d0dd353	0.034625363
15	0x3df44c9f	0.11928677
16	0x3dfb6d3a	0.12276693
17	0x3e14a515	0.14516099
18	0xbd837f42	-0.06420757
19	0x3ea2619a	0.3171509
20	0x3dfe2428	0.1240924
21	0xbd5b41c3	-0.053529512
22	0xbcf0b082	-0.02938104
23	0x3e1dfae8	0.15427744
24	0x3e2ac563	0.1667686
25	0x3d13d4d8	0.036091655
26	0xbcc9426b	-0.024567803
27	0xbd152eac	-0.036421463
28	0xbb443994	-0.0029941546
29	0x3e4a8fd2	0.19781426
30	0x3c8aceeb	0.01694437
31	0xbdcfd056	-0.10147159
32	0xbe085a0d	-0.13315602
33	0x3cce82fc	0.025208943
34	0x3eb84364	0.35988915
35	0xbdb48bc2	-0.08815719
36	0x3e30111d	0.17194028
37	0xbd3e8837	-0.046516623
38	0x3dacf703	0.08445551
39	0x3e517e05	0.20458229
40	0x3dd83426	0.105568215
41	0x3c900915	0.017582456
42	0xbe327bd3	-0.17430048
43	0x3dd37f2f	0.10326993
44	0x3ebab972	0.3646961
45	0x3ea744e9	0.32669762
46	0x3f0727c2	0.5279504
47	0x3deea94a	0.11653383
48	0x3e00e91a	0.12588921
49	0x3daf9481	0.08573247
50	0x3da2f94f	0.07957708
51	0xbd4dcc47	-0.050243642
52	0xbc1b877d	-0.009492752
53	0xbcf63de5	-0.03005881
54	0x3e76c6fb	0.24099343
55	0x3d512f23	0.051070344
56	0x3ded4b83	0.11586668
57	0xbc446ccc	-0.01198883
58	0xbd123841	-0.03569818
59	0x3e7f0008	0.24902356
60	0xbcb400fc	-0.021973126
61	0xbe725f34	-0.2366913
62	0xbdad75d2	-0.08469738
63	0x3c924101	0.017853262
64	0x3da83b8e	0.08214484
65	0x3e4d3688	0.20040333
66	0x3c594da8	0.013263144
67	0x3e0f3dc1	0.13988401
68	0x3e1b5a79	0.15171231
69	0x3d85b1f4	0.065280825
70	0x3dd8463f	0.105602734
71	0xbec19247	-0.37806913
72	0xbe1e6505	-0.15468223
73	0x3db1954c	0.08671054
74	0x3d859aad	0.06523643
75	0x3df2a774	0.118483454
76	0x3e5e1b60	0.2169013
77	0xbcb50c03	-0.022100454
78	0xbc6fba40	-0.014631808
79	0x3d0685f7	0.032842603
80	0xbe2743f1	-0.16334511
81	0xbd1ebdef	-0.038755354
82	0x3d98fc74	0.074700266
83	0x3e2c9871	0.16855027
84	0x3e5453f1	0.20735146
85	0xbe51539a	-0.20442048
86	0xbd9fe6c0	-0.07807684
87	0xbe135215	-0.1438678
88	0xbdd03fe9	-0.1016844
89	0xbc6e23f2	-0.014534937
90	0xbe85f3c4	-0.2616254
91	0x3d7c803b	0.061645728
92	0xbe0e6b8b	-0.13908212
93	0xbd41ea45	-0.047342557
94	0xbde3cdf7	-0.11123269
95	0xbe272447	-0.16322432
96	0x3d8a3e01	0.067501076
97	0xbe806725	-0.25078693
98	0x3d724b59	0.05915389
99	0x3daf32d2	0.08554615
100	0xbe952555	-0.29130045
101	0xbd2c544c	-0.04207258
102	0xbd871bc1	-0.065970905
103	0xbebf1689	-0.3732188
104	0x3d9cc029	0.07653839
105	0xbe3753ef	-0.17903112
106	0xbccffcfa	-0.025389183
107	0xbdbf6598	-0.09345549
108	0x3e3592cd	0.17731781
109	0xbb16e9fc	-0.002302765
110	0xbda4174c	-0.08012256
111	0x3e5cdff0	0.215698
112	0xbd71d89d	-0.05904447
113	0x3df79ea0	0.12090802
114	0x3dcbb88f	0.09947311
115	0x3dd16336	0.10224001
116	0xbe853c6c	-0.2602266
117	0x3e0dfb6b	0.1386544
118	0x3e46482f	0.19363473
119	0x3e7578ce	0.23971865
120	0x3e94dbec	0.29074037
121	0xbddde7c5	-0.10835222
122	0x3e5b19e0	0.2139659
123	0x3d680884	0.056648746
124	0xbdb10668	-0.086438
125	0x3e234a48	0.15946305
126	0x3e115e0b	0.14196031
127	0x3d3c4d2d	0.045972038
128	0xbca8a9c9	-0.020588772
129	0x3c88b31e	0.016686972
130	0xbeb0109a	-0.34387666
131	0xbdf07741	-0.11741496
132	0xbccdd546	-0.02512611
133	0x3e5145fa	0.2043685
134	0x3d346cfd	0.04404925
135	0x3e3c50dc	0.1839022
136	0x3e9403dd	0.28909197
137	0xbd463fc4	-0.048400655
138	0x3cdd24fd	0.026995176
139	0xbd90274c	-0.07038745
140	0xbeae9bd7	-0.3410327
141	0x3dd3b2b1	0.10336817
142	0x3da0a516	0.07843988
143	0xbbf20940	-0.0073863566
144	0x3dc86fd7	0.09786957
145	0x3c2c360a	0.010510931
146	0xbd61e927	-0.055153992
147	0xbc678a7a	-0.0141321365
148	0x3dc4d65a	0.09611197
149	0xbca26f41	-0.01982844
150	0x3c2ff98f	0.010740652
151	0x3df3a033	0.1189579
152	0x3d3b6c34	0.045757487
153	0x3e80f6d1	0.25188306
154	0x3caeb26b	0.02132531
155	0xbe28564d	-0.16439171
156	0xb9c7699f	-0.00038034932
157	0xbe8ee946	-0.27912349
158	0x3d8bb6ee	0.068220004
159	0x3e139fa1	0.14416362
160	0x3dfe6e4a	0.1242338
161	0x3e08ef9a	0.1337265
162	0x3dc6c6e1	0.09705902
163	0x3e20ed8c	0.15715617
164	0x3e5edd82	0.21764186
165	0x3dac481f	0.084121935
166	0x3e43c364	0.19117504
167	0xbda8a848	-0.08235222
168	0x3e8f2968	0.27961278
169	0x3e0a75dc	0.13521522
170	0xbd69f7c1	-0.057121042
171	0x3e7751d3	0.24152307
172	0x3c1cb3dc	0.009564366
173	0x3d7b4ff0	0.06135553
174	0xbdb03489	-0.0860377
175	0xbd5b6ded	-0.05357163
176	0x3d7423a2	0.059604295
177	0xbda6cf68	-0.08145028
178	0x3d3169ad	0.04331367
179	0xbcad8aae	-0.021184292
180	0xbdbf59a1	-0.09343267
181	0xbdb76b45	-0.08956007
182	0xbdcea90e	-0.100908384
183	0xbc35368c	-0.011060368
184	0x3cf0e4ef	0.029406039
185	0x3d4679bd	0.048455942
186	0xbbc98a65	-0.006150531
187	0x3dc63270	0.09677589
188	0x3ddc2fbe	0.107512936
189	0x3c9989cf	0.01874247
190	0xbac1eb6b	-0.0014794891
191	0x3d2f43d8	0.04278931
192	0x3d7eb3b1	0.062183086
193	0x3c3764fe	0.011193512
194	0xbdd24ca8	-0.10268527
195	0x3c824869	0.015903668
196	0xbd62d675	-0.055380303
197	0x3d834180	0.064089775
198	0xbcbd87a7	-0.023135973
199	0xbdcebd4e	-0.10094701
200	0xbd97deba	-0.074155286
201	0xbcc34423	-0.023836201
202	0xbdb1847b	-0.08667847
203	0xbb71c082	-0.0036888425
204	0x3d8c2606	0.0684319
205	0x3a8c06ff	0.0010683237
206	0xbcf7dfdb	-0.03025811
207	0x3e4ed1cb	0.20197217
208	0x3dc44713	0.09583869
209	0xbc766142	-0.0150378365
210	0x3e4948ac	0.19656628
211	0x3d27681d	0.040870775
212	0xbe1053ab	-0.14094417
213	0xbd8c1097	-0.06839102
214	0xbe925795	-0.28582445
215	0x3e92ba3f	0.2865772
216	0xbcc2b03e	-0.02376568
217	0xbe962b27	-0.29329798
218	0xbe788955	-0.24271138
219	0xbf0b186c	-0.5433414
220	0x3d30c1f7	0.04315373
221	0x3d2c6526	0.04208865
222	0x3ccd8547	0.025087966
223	0x3c6dcf2d	0.014514727
224	0x3d12569a	0.03572712
225	0xbd6eb398	-0.058276743
226	0xbe497167	-0.19672166
227	0xbe4f1fae	-0.20226929
228	0x3e41d0b6	0.18927273
229	0x3e6ccd69	0.23125233
230	0x3d996d30	0.07491529
231	0xbe728f64	-0.23687512
232	0x39e69a8a	0.0004398416
233	0x3dc03354	0.0938479
234	0x3cc6c21c	0.02426248
235	0xbd3d1064	-0.04615821
236	0xbe5eec8e	-0.21769926
237	0x3df908f7	0.12159913
238	0x3d98297d	0.07429788
239	0x3d7e6387	0.062106635
240	0x3d96ae2d	0.0735744
241	0xbd850268	-0.064945996
242	0x3c70b085	0.014690523
243	0x3dcf2fda	0.10116549
244	0x3df205b0	0.11817491
245	0x3d4d7168	0.05015698
246	0xbe28f022	-0.16497853
247	0x3cfc320c	0.030785583
248	0x3c9e4f0e	0.019324806
249	0xbd4c4efe	-0.04988002
250	0xbd89b918	-0.06724757
251	0xbe68c37a	-0.22730818
252	0xbe47a7a0	-0.19497538
253	0x3e33b5d5	0.17549832
254	0x3dd74eb6	0.1051306
255	0xbe1d7419	-0.15376319

model.0.0.0.0.bias f4 [64]
0	0xbca66919	-0.020313786
1	0x3e81e4e0	0.2536993
2	0x3d1e3ed3	0.038634133
3	0xbbbd59b6	-0.0057785166
4	0x3d6f0fe1	0.058364753
5	0xbc08a596	-0.00834026
6	0xbd9beba7	-0.076133065
7	0x3e033750	0.12814069
8	0x3ea5d7f7	0.3239133
9	0xbd1e0b53	-0.03858502
10	0x3e009d9b	0.12560122
11	0x3d07c9af	0.033151325
12	0x3e420f24	0.18951088
13	0xbd2fbf11	-0.042906824
14	0xbd881c0a	-0.06645973
15	0xbd60f39c	-0.054919824
16	0x3e13dede	0.14440486
17	0x3e37a8a8	0.17935431
18	0x3ca33037	0.019920452
19	0x3ea0e44a	0.3142417
20	0x3e3a2213	0.18177061
21	0x3e37bcff	0.1794319
22	0x3e01472c	0.12624806
23	0x3def5e3a	0.11687894
24	0x3c88975d	0.016673738
25	0x3cc7f9ca	0.0244111
26	0xbd1b2886	-0.037880443
27	0x3daf4095	0.0855724
28	0xbd6ffb3c	-0.058589205
29	0xbdde52d7	-0.10855644
30	0x3e1b0ee2	0.15142396
31	0x3db044f2	0.086069
32	0x3df45add	0.11931393
33	0x3dc1ff2a	0.09472497
34	0x3e4952da	0.19660512
35	0x3d804c72	0.06264581
36	0x3defd47f	0.11710452
37	0xbe084863	-0.13308863
38	0x3e84f60a	0.25968963
39	0xbda225f7	-0.079173975
40	0x3dd49f53	0.10381951
41	0x3d98d58e	0.07462607
42	0xbd3e335e	-0.046435706
43	0x3e7426cd	0.23842926
44	0xbd635721	-0.055503014
45	0x3da3bfa9	0.07995541
46	0x3e7249dc	0.23660988
47	0x3e72cb76	0.23710427
48	0x3e344860	0.17605734
49	0x3e332798	0.17495573
50	0x3dd73c6e	0.10509573
51	0x3e154ad8	0.14579332
52	0xbdb4b92a	-0.0882438
53	0xbd9f30ef	-0.07773005
54	0x3e28318c	0.1642515
55	0x3bfe9410	0.0077691153
56	0x3e17ff1d	0.14843412
57	0xbcaa13a3	-0.020761317
58	0x3d3ac2d7	0.04559597
59	0x3d0e4b7b	0.034739953
60	0xbd3828af	-0.044960674
61	0x3df6a966	0.12044029
62	0xbdacadaf	-0.08431565
63	0xbdd103fb	-0.10205837

model.0.0.1.weight f4 [48, 64]
0	0x3e52da65	0.20591123
1	0xbd4c4ded	-0.049879003
2	0xbea5366e	-0.3226809
3	0xbe037df1	-0.12841012
4	0xbd4b532b	-0.049639862
5	0xbe43ffd9	-0.19140567
6	0x3e2e2f86	0.17010316
7	0xbe85300b	-0.26013216
8	0xbdac56ff	-0.08415031
9	0x3cc5caa0	0.02414447
10	0x3e24832a	0.1606566
11	0x3d8a6451	0.06757415
12	0x3d93fa89	0.0722552
13	0xbba86da8	-0.005140025
14	0xbddde22e	-0.10834156
15	0xbd9d07e6	-0.07667522
16	0x3e08e6ed	0.13369341
17	0xbdb1f9a2	-0.08690192
18	0x3e47995e	0.19492099
19	0x3dba5788	0.090987265
20	0x3d17b3d8	0.037036747
21	0xbe1344d0	-0.14381719
22	0x3e4d9a4a	0.20078388
23	0x3c501c8d	0.01270212
24	0x3d69ff00	0.057127953
25	0x3e6e5988	0.23276341
26	0x3d1d0d67	0.03834286
27	0xbe6dd144	-0.2322436
28	0x3c679fb0	0.014137194
29	0x3c529a41	0.01285416
30	0xbd399f0d	-0.0453177
31	0x3d3c04d6	0.04590305
32	0x3dd6e345	0.10492567
33	0xbd2e268b	-0.042517226
34	0x3db44f55	0.08804194
35	0xbddd427e	-0.10803698
36	0xbe15562c	-0.14583653
37	0x3d8dbe2c	0.06921038
38	0xbdbe6a1c	-0.092975825
39	0x3e028f87	0.12750064
40	0xbe0d4392	-0.13795307
41	0xbd24738c	-0.040149257
42	0xbc2603cb	-0.01013274
43	0x3d5a5e73	0.05331273
44	0xbe5fbb35	-0.21848758
45	0xbd27aff1	-0.040939275
46	0xbcac1898	-0.021007821
47	0xbd96426c	-0.07336888
48	0x3d6c7855	0.057731945
49	0x3cfaf2bc	0.030633323
50	0x3e1bddb3	0.1522129
51	0xbdb44a6f	-0.088032596
52	0xbe32eb50	-0.17472577
53	0xbd74a3b9	-0.05972645
54	0x3d9b512c	0.07583842
55	0xbda3eb9d	-0.08003924
56	0xbd246648	-0.040136606
57	0xbc0afd0b	-0.008483182
58	0xbc828f55	-0.015937487
59	0x3ddcf5b5	0.107890524
60	0x3cfabd6e	0.030607905
61	0x3c7aed93	0.015315431
62	0xbd0bcfe0	-0.034133792
63	0x3d0577c3	0.032584917
64	0x3d652e61	0.055952433
65	0x3e303213	0.17206602
66	0x3cef81cd	0.029236699
67	0xbe1c98b4	-0.15292627
68	0x3e390d4c	0.18071479
69	0x3dd59194	0.104281574
70	0xbd903e65	-0.07043151
71	0xbdec0291	-0.11523927
72	0x3db39c32	0.08770026
73	0x3ca1cd5c	0.019751243
74	0x3d9a22a9	0.07526142
75	0x3ded9a86	0.11601739
76	0xbd55530e	-0.05208116
77	0xbdbf0682	-0.09327413
78	0x3e280f48	0.1641208
79	0xbd7b5959	-0.061364505
80	0x3e2b8087	0.16748248
81	0x3deda1a3	0.116030954
82	0xbdc5c177	-0.09656041
83	0x3deea5a1	0.11652685
84	0x3e1e5d4c	0.15465277
85	0xbca148bf	-0.019688008
86	0x3dd7d021	0.10537744
87	0x3d8bb323	0.06821277
88	0x3eb7ff4a	0.35936958
89	0xbd53d01b	-0.051712137
90	0x3df577e0	0.11985755
91	0x3da1d3c6	0.07901721
92	0xbd5586b3	-0.052130412
93	0x3ce4909b	0.027900985
94	0xbdbb1dfd	-0.09136579
95	0xbc098b4d	-0.008395028
96	0x3db4383e	0.0879979
97	0xbd7ae19f	-0.061250325
98	0xbc947fec	-0.018127404
99	0xbdbae136	-0.09124987
100	0x3d8cab0d	0.06868563
101	0x3e97fed2	0.296866
102	0x3d50913e	0.050919764
103	0x3d7b8a1e	0.061411016
104	0x3d2e31c8	0.042527944
105	0x3cf0a029	0.029373245
106	0x3d1bbab2	0.038019843
107	0x3d215fde	0.039398067
108	0x3d515deb	0.051114958
109	0x3d1addc0	0.037809134
110	0xbd02a8ca	-0.03189925
111	0x3e1c99dd	0.15293069
112	0xbd5414ed	-0.05177777
113	0x3cccf57e	0.025019404
114	0x3d90fc59	0.070793815
115	0x3ddeb2e7	0.10873967
116	0x3d297035	0.041366775
117	0xbdb1b29c	-0.08676645
118	0x3da5b266	0.080906674
119	0xbd36788a	-0.04454855
120	0x3dd09026	0.10183744
121	0xbdd5f307	-0.104467444
122	0x3dfdac84	0.1238642
123	0x3e06bd20	0.13158083
124	0xbda384df	-0.079843275
125	0xbc777ef0	-0.015105948
126	0x3d184c8f	0.037182387
127	0x3e0082b5	0.12549861
128	0x3d57e769	0.052710924
129	0x3d882955	0.066485085
130	0x3e080802	0.13284305
131	0xbe2ce32f	-0.16883539
132	0x3d970fbd	0.07376049
133	0xbdc1c371	-0.094611056
134	0xbe3c81c6	-0.1840888
135	0xbd0a5c00	-0.033779144
136	0x3dc11d7a	0.0942945
137	0xbd9a185e	-0.07524179
138	0x3d930cf2	0.071802035
139	0x3dcec82c	0.100967735
140	0x3c966672	0.018359397
141	0x3e7d8b6b	0.24760215
142	0xbe389c6e	-0.18028423
143	0xbdcc9c42	-0.09990741
144	0xbd3ae775	-0.04563089
145	0x3e1e30bf	0.15448283
146	0x3db6e335	0.08930055
147	0x3cb51239	0.022103416
148	0x3dd199d2	0.10234417
149	0x3de1fb2f	0.110342376
150	0x3ccee80d	0.025257135
151	0x3cedf07a	0.029045332
152	0xbe7d31e5	-0.24726065
153	0x3e183d68	0.14867175
154	0x3e17ae89	0.14812674
155	0x3d5479c2	0.05187393
156	0xbd538e40	-0.051649332
157	0xbdcc6a41	-0.09981204
158	0xbde379be	-0.11107205
159	0xbd9476cd	-0.07249222
160	0x3c612877	0.013742558
161	0xbe3178e7	-0.17331277
162	0xbb5e757c	-0.0033944538
163	0xbe475aa6	-0.19468173
164	0xbcf23655	-0.029566923
165	0x3b5807ee	0.003296371
166	0x3d0dec8e	0.034649424
167	0xbd62753a	-0.055287577
168	0x3e46aa95	0.1940101
169	0x3d809327	0.06278067
170	0xbdd287c0	-0.102797985
171	0xbc69ae9a	-0.01426282
172	0x3e213491	0.15742709
173	0xbd02c593	-0.031926703
174	0x3ddfbd25	0.10924748
175	0xbd819106	-0.06326489
176	0x3e15468a	0.1457769
177	0xbded0839	-0.11573834
178	0xbbc0deb5	-0.0058859237
179	0x3c2b1a48	0.010443278
180	0xbe1b0594	-0.15138847
181	0xbec0a705	-0.37627426
182	0x3d80b148	0.06283814
183	0xbd975a76	-0.07390301
184	0xbe3c5724	-0.18392617
185	0xbe079313	-0.13239698
186	0x3e08fe1a	0.13378182
187	0xbac57405	-0.0015064484
188	0xbdf106c4	-0.117688686
189	0xbab5a778	-0.0013859114
190	0xbd94603d	-0.072449185
191	0xbbc00a25	-0.0058605843
192	0xbd8d290c	-0.06892595
193	0x3ddee872	0.10884179
194	0xbd9a555f	-0.075358145
195	0xbdc2f91a	-0.095201686
196	0x3d42b493	0.04753549
197	0x3c9d65b0	0.019213527
198	0x3ccb3696	0.024806302
199	0xbdb5a96c	-0.08870205
200	0xbc118606	-0.008882051
201	0xbd485567	-0.04890957
202	0xbd35b322	-0.044360287
203	0xbd8fd7a8	-0.07023555
204	0x3e34bb6a	0.17649618
205	0x3e101a6a	0.14072576
206	0x3a323f2f	0.0006799576
207	0xbdcab236	-0.09897272
208	0x3e048291	0.12940432
209	0x3e00d4f8	0.12581241
210	0x3ecbb094	0.39783156
211	0x3d402e59	0.0469192
212	0x3de92114	0.11383262
213	0x3e3c2cc5	0.18376453
214	0x3e0a94bc	0.135333
215	0xbca17295	-0.019707957
216	0xbdb0de7e	-0.08636187
217	0x3ddd7d28	0.10814887
218	0x3cb2930f	0.021798639
219	0x3dca71e1	0.09885002
220	0xbd385a6b	-0.045008104
221	0x3e436925	0.19083078
222	0x3d35efe7	0.04441824
223	0x3b82df7b	0.003993926
224	0xbd870aca	-0.06593855
225	0xbd177b4c	-0.03698282
226	0xbd9bbec9	-0.07604749
227	0x3dcd8aa1	0.10036207
228	0xbd853e57	-0.06506031
229	0x3a918e45	0.0011105022
230	0xbdb43789	-0.08799655
231	0x3cd066c0	0.02543962
232	0xbd2e8a08	-0.042612106
233	0x3cc9033e	0.024537679
234	0xbdf31d8f	-0.11870872
235	0xbdb08125	-0.08618382
236	0xbe5b42be	-0.21412179
237	0x3e2372cb	0.15961759
238	0xbcdf5866	-0.027263831
239	0xbdab181e	-0.08354209
240	0x3dd1ffcb	0.10253867
241	0xbd1a98ce	-0.037743382
242	0x3e5384e3	0.20656161
243	0xbe1f08d7	-0.15530716
244	0x3e37d506	0.17952356
245	0x3d4f7c1f	0.05065548
246	0xbc8f21bd	-0.017472142
247	0x3d4d327e	0.05009698
248	0x3d0ee291	0.03488404
249	0x3e001727	0.12508832
250	0xbe1ff46b	-0.15620582
251	0x3dec1200	0.11526871
252	0x3b807cbf	0.003921121
253	0x3d8846c7	0.06654125
254	0x3c893c5f	0.01675242
255	0xbcf8d338	-0.030374154

model.0.0.1.bias f4 [48]
0	0xbcb5aada	-0.022176195
1	0x3df3ff13	0.11913886
2	0x3d181b6d	0.03713553
3	0xbe069f4f	-0.13146709
4	0xbca00838	-0.019535169
5	0xbdbd9754	-0.09257379
6	0xbd9162fb	-0.07098957
7	0xbe19d9ae	-0.15024444
8	0x3e197b99	0.14988555
9	0xbe0279ce	-0.12741777
10	0xbd019735	-0.031638343
11	0x3cbb571c	0.022868685
12	0xbe12781e	-0.14303634
13	0xbbf7c56c	-0.0075613763
14	0x3ddbbb03	0.10729029
15	0xbd893cd1	-0.06701053
16	0xbde1443f	-0.10999345
17	0x3d8def63	0.06930425
18	0x3e08f33b	0.13374035
19	0x3e284b11	0.16434886
20	0x3e131235	0.14362414
21	0x3d3e2d7f	0.046430107
22	0xbd0f6afe	-0.035014145
23	0x3dd420c3	0.10357811
24	0xbd59dcc7	-0.053189065
25	0x3d87c608	0.06629568
26	0xbcbc94b3	-0.023020124
27	0x3dca7394	0.09885326
28	0xbde01ecc	-0.10943374
29	0x3e5dc117	0.21655689
30	0x3c0fc4a4	0.00877491
31	0x3e1bbbc9	0.15208353
32	0xbcc8c7d0	-0.02450934
33	0xbd55a065	-0.052154917
34	0x3e3674a9	0.1781794
35	0x3d5a9bd5	0.05337127
36	0xbd3fd128	-0.046830326
37	0x3e8c2d95	0.27378526
38	0x3e0ee5f0	0.13954902
39	0x3dd25ec0	0.102719784
40	0x3df29f63	0.11846807
41	0x3e1b727d	0.15180393
42	0x3c93e7d2	0.018054876
43	0x3ce37eeb	0.02777048
44	0x3cd4ab7d	0.025960678
45	0xbbb89cee	-0.005633942
46	0x3d8ec2af	0.06970727
47	0x3cc6c402	0.024263386

model.0.1.weight f4 [24, 48]
0	0x3e750fab	0.23931758
1	0xbe0de46b	-0.13856666
2	0x3e281190	0.1641295
3	0x3dc08be9	0.09401686
4	0xbd514b68	-0.051097304
5	0xbde41b38	-0.11138004
6	0xbe04e48b	-0.12977807
7	0x3e48cd85	0.1960965
8	0xbddbcf07	-0.10732847
9	0xbdb2931b	-0.087194644
10	0xbd56c9f7	-0.052438702
11	0xbec8799f	-0.3915529
12	0xbe55363a	-0.20821467
13	0xbd94c7bb	-0.07264658
14	0x3e25e172	0.16199282
15	0xbd8f4b5b	-0.06996795
16	0x3e0eede7	0.1395794
17	0x3df38dfe	0.11892317
18	0x3d2acb72	0.041697927
19	0xbe773db5	-0.24144633
20	0x3e068e32	0.1314018
21	0x3bed589b	0.0072432286
22	0x3dce6f7e	0.10079859
23	0x3d8ceabb	0.06880709
24	0x3dbe5b53	0.092947625
25	0xbef57994	-0.4794432
26	0x3defc292	0.11707033
27	0x3d878b10	0.06618321
28	0xbdeef480	-0.116677284
29	0xbc45a1f7	-0.012062541
30	0xbd996860	-0.07490611
31	0x3c8abbbb	0.01693522
32	0xbed29478	-0.41128898
33	0x3e83c97b	0.25739655
34	0xbc90b9dd	-0.017666752
35	0xbe320932	-0.1738632
36	0xbe304f60	-0.17217779
37	0xbdff26e3	-0.12458589
38	0xbdf7469e	-0.12074016
39	0xbd0260b9	-0.031830523
40	0x3d28a2cb	0.041170876
41	0xbe0e7646	-0.13912305
42	0xbc6639de	-0.014051883
43	0xbce230f4	-0.027611233
44	0xbc13c6bb	-0.009019549
45	0x3e9917bf	0.2990093
46	0xbd84849f	-0.06470608
47	0xbd064092	-0.032776423
48	0xbd8f04db	-0.06983348
49	0xbd347d21	-0.044064645
50	0xbe315e0b	-0.17321031
51	0x3dd47400	0.10373688
52	0xbe08faf2	-0.13376978
53	0x3e11bfd6	0.14233336
54	0x3e351a77	0.17685877
55	0xbe296dc0	-0.16545773
56	0x3dd882d8	0.105718315
57	0xbdfb521b	-0.1227152
58	0x3d187004	0.0372162
59	0x3e85b379	0.2611349
60	0x3d24a1ef	0.040193494
61	0x3b4c9068	0.0031214003
62	0x3cc662a4	0.024216957
63	0xbcf1f3d8	-0.02953522
64	0x3e1e5a2c	0.15464085
65	0xbe28c705	-0.1648217
66	0x3daac13e	0.08337639
67	0x3e508230	0.20362163
68	0xbe239564	-0.15974957
69	0xbe066eb2	-0.13128164
70	0xbdadbd00	-0.084833145
71	0xbd2a2ba1	-0.041545514
72	0xbe74a50c	-0.23891085
73	0xbda52260	-0.08063197
74	0x3e2ed205	0.17072304
75	0xbe6e3684	-0.23262984
76	0xbd8992ba	-0.06717439
77	0x3d4a3dd1	0.04937536
78	0x3e58ffcf	0.21191333
79	0x3d4465a4	0.047948495
80	0x3e82cadb	0.2554539
81	0xbd7f34b5	-0.062306125
82	0x3dedaacb	0.11604842
83	0x3d1e27c1	0.03861213
84	0x3e1734ae	0.1476619
85	0x3ca927b6	0.020648818
86	0xbdd02218	-0.10162753
87	0xbe2087e4	-0.15676838
88	0x3cce766c	0.025202952
89	0xbdd8e8d8	-0.105912864
90	0xbe6954dc	-0.22786278
91	0x3ea3db16	0.32003087
92	0xbdc34acc	-0.09535751
93	0xbd99532c	-0.07486567
94	0xbda517c2	-0.08061172
95	0xbe4e4015	-0.20141633
96	0xbe0f7dd6	-0.14012846
97	0xbe2f3853	-0.1711133
98	0xbe4771b5	-0.1947697
99	0x3d32b415	0.04362877
100	0x3cb95490	0.02262333
101	0x3e2898fe	0.16464612
102	0xbe3a016e	-0.18164608
103	0xbd879ee1	-0.066221006
104	0x3ef188ec	0.47174776
105	0xbeb7b6b9	-0.35881594
106	0x3c973195	0.01845626
107	0x3df24c25	0.1183093
108	0xbe07a56e	-0.132467
109	0x3ce796a5	0.028270075
110	0xbd816307	-0.06317716
111	0xbe1978bc	-0.14987463
112	0xbcf0c1e2	-0.029389326
113	0xbe06b495	-0.13154824
114	0x3e9fb40a	0.31192046
115	0x3cf41d2b	0.029799065
116	0xbdf18a06	-0.11793904
117	0xbedaf2cb	-0.4276336
118	0x3d10a209	0.03531078
119	0x3cd84d38	0.026404008
120	0xbe85b488	-0.26114297
121	0x3d95879e	0.073012576
122	0x3e8bd578	0.273113
123	0xbe0f0156	-0.13965353
124	0x3e094ee4	0.13409
125	0xbcf31b18	-0.029676005
126	0xbd3a8662	-0.045538314
127	0x3d5ec28a	0.054384746
128	0xbe78e9d7	-0.24307953
129	0xbcba1a62	-0.022717658
130	0x3e2b4991	0.16727282
131	0x3e8885b5	0.2666451
132	0xbe5f6c1b	-0.21818583
133	0x3d418159	0.047242496
134	0x3ddea084	0.1087046
135	0xbc811bee	-0.015760388
136	0xbc1926d3	-0.009347635
137	0x3db726f0	0.089429736
138	0xbe1ae039	-0.15124597
139	0xbd896730	-0.067091346
140	0x3e25785b	0.16159193
141	0xbc6e791d	-0.014555243
142	0xbcfd6510	-0.03093198
143	0x3e0bc51f	0.13649414
144	0x3d439071	0.047745172
145	0xbdf44563	-0.11927297
146	0xbe157b36	-0.14597782
147	0x3caf60cd	0.021408463
148	0x3dab9f9e	0.08380054
149	0x3e057f9a	0.13036957
150	0x3cea0604	0.028567322
151	0x3dfba7aa	0.12287839
152	0xbe1c9e38	-0.1529473
153	0x3d3ac095	0.045593817
154	0xbdc86de5	-0.09786586
155	0xbe113c0d	-0.14183064
156	0xbd66dade	-0.05636107
157	0xbd97e0da	-0.07415934
158	0xbe318f42	-0.17339805
159	0xbd338dd5	-0.043836433
160	0xbd7ee470	-0.062229574
161	0x3d3a520f	0.045488413
162	0xbd33c689	-0.04389051
163	0xbcb63dfd	-0.022246355
164	0x3deb801d	0.11499045
165	0x3de3d234	0.111240774
166	0xbe1bad0c	-0.15202731
167	0xbd50ac40	-0.05094552
168	0xbc066cf6	-0.008204689
169	0xbc3e7604	-0.011624817
170	0x3ccee357	0.025254888
171	0xbdf50008	-0.119628966
172	0x3cef15b4	0.029185154
173	0xbc27efcb	-0.010250042
174	0x3d910973	0.070818804
175	0xbe1e1cd8	-0.1544069
176	0x3d32e55f	0.043675777
177	0x3de70523	0.112802766
178	0xbdf7c3b0	-0.12097871
179	0x3da06ad5	0.078328766
180	0x3e0b9004	0.13629156
181	0xbc5e8990	-0.013582602
182	0xbdc1a4ca	-0.09455259
183	0x3d9ff3fe	0.0781021
184	0x3d417a50	0.047235787
185	0x3be9c235	0.007133747
186	0x3d24c443	0.040226232
187	0xbe14c2ba	-0.14527407
188	0xbcd98836	-0.026554208
189	0x3ddd07cf	0.10792505
190	0xbe1f1cdf	-0.15538357
191	0x3d8efb09	0.06981475
192	0xbe05c8bb	-0.13064854
193	0xbbfe692f	-0.0077640037
194	0xbbbf5d6d	-0.0058399946
195	0xbe151f73	-0.14562778
196	0xbe86ff18	-0.26366496
197	0x3da80c6c	0.08205494
198	0x3e2ba850	0.16763425
199	0xbdf82444	-0.12116292
200	0x3e4df760	0.20113897
201	0x3d965d2a	0.073419884
202	0xbd3bd78e	-0.045859866
203	0x3e3da2ff	0.1851921
204	0xbdc9d34f	-0.09854757
205	0x3d25d716	0.040488325
206	0x3de9bcf0	0.1141299
207	0xbdfbdb59	-0.122976966
208	0xbe113cdb	-0.14183371
209	0x3d227f5f	0.03967225
210	0x3e12595a	0.14291897
211	0x3e17b419	0.14814796
212	0x3e47ec04	0.19523627
213	0x3d9aa8a7	0.07551699
214	0xbe00aea0	-0.12566614
215	0x3eb95ce1	0.36203673
216	0xbe6b5668	-0.2298218
217	0x3b53a0e7	0.003229195
218	0x3ccf36c9	0.025294678
219	0x3c4ac0ca	0.012375066
220	0x3dfb98ac	0.12284979
221	0x3e012b61	0.12614204
222	0xbdbf471e	-0.093397364
223	0x3dfe1a77	0.124073915
224	0xbdcaa566	-0.098948285
225	0xbdefcb06	-0.117086455
226	0x3db2f94f	0.08738958
227	0x3d3ca29f	0.046053525
228	0x3e820ee2	0.2540198
229	0x3e371bd0	0.17881703
230	0x3e22e38d	0.15907116
231	0x3e04a962	0.1295524
232	0x3da89e8e	0.08233367
233	0xbdacfbe1	-0.084464796
234	0x3cfb1bf8	0.030652985
235	0xbe9798a4	-0.29608643
236	0x3e1b126e	0.15143749
237	0xbe0efd39	-0.13963784
238	0x3d803707	0.06260496
239	0xbdebd8ad	-0.11515937
240	0x3dd59a1d	0.104297854
241	0xbb242f61	-0.0025052654
242	0x3d0da393	0.034579825
243	0x3d12cbf4	0.035839036
244	0xbcc9bf71	-0.02462742
245	0xbe955daa	-0.29173023
246	0x3d864557	0.06556194
247	0x3e852400	0.26004028
248	0x3df7c55e	0.12098192
249	0x3e7be1ed	0.24597903
250	0x3e10f77e	0.14156911
251	0xbd254e89	-0.0403581
252	0xbe440658	-0.19143045
253	0x3d0bb919	0.03411207
254	0xbda1dc5a	-0.07903357
255	0xbb989a3a	-0.004657057

model.0.1.bias f4 [24]
0	0xbc51c623	-0.012803587
1	0x3d905313	0.07047095
2	0x3d5d21ea	0.05398742
3	0x3df214a2	0.11820342
4	0x3e4705c6	0.19435796
5	0xbd379f43	-0.04482962
6	0x3e3c9a12	0.18418148
7	0xbd4d24b3	-0.050083827
8	0x3d5f4074	0.054504827
9	0x3e0e3001	0.138855
10	0xbd7791cb	-0.060441773
11	0x3e41e483	0.18934827
12	0xbe01d7a6	-0.1267992
13	0x3df2ba2a	0.11851914
14	0xbdb782b8	-0.089604795
15	0xbde705f4	-0.11280432
16	0xbd017041	-0.031601194
17	0x3dea3103	0.114351295
18	0xbe5257d1	-0.20541312
19	0x3d015d72	0.031583257
20	0xbca2d8e7	-0.019878818
21	0xbcbc1938	-0.022961244
22	0x3c8a2e21	0.0168677
23	0x3bce429a	0.0062945606

model.1.weight f4 [4, 24]
0	0x38d64579	0.000102172555
1	0xbe82e1a6	-0.2556278
2	0x3e2fa44d	0.1715252
3	0xbe29d21a	-0.16584054
4	0x3e9781ea	0.29591304
5	0x3dfdf2ef	0.123998515
6	0x3e633bea	0.22190824
7	0xbe36f7bd	-0.17867942
8	0xbec53597	-0.38517448
9	0xbe6a8afb	-0.2290458
10	0x3e720de3	0.2363811
11	0x3e6a1031	0.22857739
12	0xbe141839	-0.14462365
13	0x3e61666b	0.22011726
14	0xbe50bb0a	-0.2038385
15	0xbd86a916	-0.06575219
16	0x3ea8e571	0.3298755
17	0x3e482b84	0.1954785
18	0xbe28f62b	-0.16500156
19	0xbe1a488b	-0.15066735
20	0xbea6994e	-0.32538837
21	0xbe913ac2	-0.2836514
22	0x3e1676b7	0.14693724
23	0xbdba4bc4	-0.090964824
24	0xbe9973db	-0.29971203
25	0x3dd155a1	0.102214105
26	0x3e064c1e	0.13114974
27	0xbde3864a	-0.11109598
28	0x3e83b04b	0.25720438
29	0xbb7ee088	-0.0038891155
30	0x3c647c4e	0.013945652
31	0x3e348559	0.17628993
32	0x3d40702a	0.046981968
33	0xbdf4049d	-0.119149424
34	0x3e21991d	0.15781064
35	0x3e5fbc01	0.21849062
36	0x3bdfa3d2	0.006824949
37	0x3e023919	0.12717094
38	0xbe2867e4	-0.16445881
39	0xbda2d526	-0.07950811
40	0x3d81b496	0.06333272
41	0x3e70e227	0.2352377
42	0xbc977f36	-0.018493276
43	0x3e0069eb	0.12540404
44	0xbe10920c	-0.14118212
45	0xbc7acd0e	-0.015307678
46	0x3e62f74d	0.2216465
47	0xbd2b11d9	-0.041765068
48	0x3e34b4f2	0.1764715
49	0xbdac7467	-0.084206395
50	0x3d864956	0.065569565
51	0xbe3f5457	-0.18684517
52	0x3bead105	0.0071660304
53	0xbe586aea	-0.21134534
54	0x3e7210e0	0.2363925
55	0x3c4fa630	0.0126738995
56	0x3e526d09	0.20549406
57	0x3e91746c	0.28409135
58	0xbe6234dd	-0.22090478
59	0x3d0e88e7	0.03479853
60	0xbec41c0f	-0.38302657
61	0x3e7f3ea5	0.2492624
62	0xbd097854	-0.03356202
63	0xbdee067e	-0.11622332
64	0xbd849fea	-0.06475814
65	0x3e1cec61	0.15324546
66	0xbe0c37d9	-0.13693179
67	0x3e864bc7	0.2622969
68	0xbe85e6bc	-0.261526
69	0xbddf70cc	-0.10910186
70	0x3e811705	0.25212875
71	0xbe45147e	-0.19246098
72	0xbe6fe2e9	-0.23426403
73	0xbd073fb2	-0.03301973
74	0x3f192d47	0.5983471
75	0x3da34fef	0.079742305
76	0x3d0d96e8	0.034567744
77	0xbe86e001	-0.26342776
78	0x3e374414	0.17897063
79	0xbdbfa4ad	-0.09357581
80	0xbea94ce4	-0.33066475
81	0xbe170af0	-0.14750266
82	0x3edbccf5	0.42929807
83	0x3eab9cfa	0.335182
84	0x3e4a9c20	0.1978612
85	0x3e0df438	0.13862693
86	0x3e01936e	0.12653896
87	0x3e48f4c1	0.19624616
88	0x3d913096	0.07089345
89	0xbe0d8de1	-0.13823654
90	0x3f2a5781	0.6653977
91	0x3d3057a0	0.043052316
92	0xbe8eb5ca	-0.2787307
93	0xbe6954e4	-0.2278629
94	0x3e496a3b	0.1966943
95	0x3e8633fb	0.26211533

model.1.bias f4 [4]
0	0xbda4d4be	-0.0804839
1	0x3d4c90c9	0.049942765
2	0xbdefbfeb	-0.11706527
3	0x3e628e02	0.22124484
