checkpoint_unoptimized.pth (torch_old, 28735 bytes, 8 tensors)

model.0.0.0.0.weight f4 [64, 37]
000000 d1 e0 23 3e 88 01 7f bc 18 b8 a3 3d 6e a1 1d 3e
       0.1600373 -0.01556433 0.079940975 0.15393612
000010 7f c9 27 3e 5e 1f 2a be 34 42 c5 bc 04 72 60 3e
       0.16385458 -0.16613528 -0.02407942 0.21918494
000020 8f 0f 85 3d c7 37 0f 3f ef f0 e4 3c e0 bb 31 3d
       0.06497108 0.55944484 0.027946917 0.043392062
000030 c1 2d 47 3b 1a c6 2a 3d 55 f1 00 3e 4b 8f 3f 3d
       0.0030392262 0.04169283 0.12592061 0.046767514
000040 c7 fb 2a 3e e1 fa e3 3d 92 9a 16 bd 76 11 86 3e
       0.16697608 0.11131836 -0.036768503 0.26185197
000050 19 5c a4 3d 65 7e 87 bd cc 99 37 bd 30 5f e9 3d
       0.08025379 -0.06615905 -0.044824407 0.11395109
000060 65 9d e4 3d 0e 7c c7 bd 70 f6 2c bd 0a df 23 3e
       0.11162833 -0.097404584 -0.04222721 0.16003051
000070 b1 2e 68 3c fb 1f 60 3e f6 16 fd bd 4c 06 20 bd
       0.014171288 0.218872 -0.12357895 -0.039068505
000080 ff 49 16 bd ef 94 88 3d 8c da 82 3e 8d 0b a4 3d
       -0.036691662 0.06669032 0.25557363 0.08010016
000090 c6 4e f2 3d 19 38 f6 3c 1b cd cf 3d 88 7b 09 3e
       0.11831431 0.030056046 0.10146543 0.1342603
0000a0 1e 35 af 3d 14 5b aa bd dd e4 4e bd 43 a1 4e 3e
       0.08555053 -0.08318153 -0.05051123 0.20178704
0000b0 e9 0d 59 3e c1 11 34 3e 98 90 00 3f b3 67 30 3e
       0.21196713 0.17584898 0.5022063 0.17227058
0000c0 69 f4 1b 3e 7f 5b 92 3d c5 29 2d 3e a0 93 8f bd
       0.15229954 0.07146358 0.16910465 -0.07010579
0000d0 82 9b c8 3d 36 cb 8e 3a 86 75 0c 3e 0f f9 e0 3d
       0.09795286 0.0010894302 0.13716707 0.10985004
0000e0 b4 30 ad 3d ba 13 f4 3d b0 2a 21 bd cc 95 22 3e
       0.08456555 0.11917825 -0.03934735 0.15877455
0000f0 fb 05 af bd 88 4e 89 be 98 36 18 3e e3 7d 59 bb
       -0.085460626 -0.26817727 0.14864576 -0.0033186607
000100 30 b4 98 bd 0c 15 07 3e 49 1a 8b bc e5 cb 81 3e
       -0.07456243 0.13191622 -0.016980307 0.25350872
000110 1d db 3e 3e c7 ce 30 bd 16 fd 9f 3d 22 98 74 be
       0.18638273 -0.04316595 0.07811944 -0.23886159
000120 ca ca a8 bc d4 90 3a 3d 0a 38 d1 3d dd db cc 3d
       -0.02060451 0.045548275 0.10215767 0.10002873
000130 6d b4 f7 3d 77 8f 5f 3e 10 91 61 3c ca ae 80 bd
       0.1209496 0.21832071 0.013767496 -0.06283338
000140 54 e9 9c bd 0a 13 58 3c 41 d8 7b 3d 65 e6 82 3e
       -0.07661691 0.013188133 0.061485533 0.25566402
000150 fa bf 65 3c 95 10 9d bd 4b ff 50 bd b0 bf a5 3c
       0.014022822 -0.076691784 -0.051024716 0.020233005
000160 30 ae bc 3c 11 6f ae bd 06 5d a3 bd 51 b7 d5 bc
       0.023032278 -0.08517278 -0.07976727 -0.026088389
000170 49 a2 e4 bd 8e df 0e 3e 66 21 21 be 4f 3d f4 bc
       -0.11163766 0.13952467 -0.15735397 -0.02981439
000180 7a d5 27 bd 28 c1 18 bd f6 21 3d 3e 82 3c bd 3c
       -0.04097507 -0.037293583 0.18469986 0.023100141
000190 b0 08 be bc be d5 62 bd ba 8e 62 bd 6f f4 ae 3d
       -0.023197502 -0.05537962 -0.055311896 0.08542716
0001a0 c5 19 a8 bd 29 97 c0 bd 24 5b 7e bd 9f e0 67 3d
       -0.0820804 -0.094038315 -0.062098637 0.0566107
0001b0 4a 9a d5 3d fa 96 5c bd fa 54 52 bd 75 f3 1b 3e
       0.10429819 -0.05385492 -0.05135057 0.1522959
0001c0 2c 78 e2 3c 00 24 1f 3c 11 8a 81 3d 1f e9 88 3d
       0.027645193 0.009713173 0.06325162 0.06685089
0001d0 3e 2f 87 be 72 e3 2d 3e b4 98 71 3e c8 6d 90 3d
       -0.2640323 0.16981295 0.23593408 0.07052189
0001e0 d8 70 ff 3e 0b 7f 14 bd be ba d3 3d dd 53 87 3c
       0.4989078 -0.03625397 0.103383526 0.016519481
0001f0 dd b9 18 3d 90 70 57 3d 77 6f 02 3e 18 20 93 3d
       0.037286628 0.052597582 0.12737833 0.07183856
000200 00 00 ac bd dc ad 07 be 0e 37 9a be 6b 22 dc bd
       -0.083984375 -0.13249916 -0.30120128 -0.10748752
000210 5d 72 b5 3b 36 b1 ba 3d bb c1 c0 bc 7d a7 85 3e
       0.005537315 0.091158316 -0.023529878 0.26104346
000220 49 ab 22 3e 85 cf 85 3d c3 06 bc 3c f2 77 2a bc
       0.15885653 0.06533722 0.022952443 -0.010404574
000230 6e d5 80 be 54 8b d9 3d 05 8a 42 3d 73 4f 63 3d
       -0.25162834 0.10622278 0.047494907 0.05549569
000240 62 92 da 3d 12 9b 06 3e e2 89 0d 3c 45 d3 f4 b8
       0.106724516 0.13145092 0.008638831 -0.00011674179
000250 77 9d f2 bd 37 e5 77 3d b1 df 5e 3c 47 cc ae 3d
       -0.1184644 0.06052133 0.013603137 0.085350566
000260 1c 3f 85 3e 59 94 fa 3d 29 f3 4d bd c7 a9 c0 bd
       0.2602471 0.12235326 -0.050280724 -0.094073825
000270 43 09 3b bd 34 86 1f be 2c c7 8e 3d 2a 54 c0 3d
       -0.04566313 -0.15578538 0.06971583 0.09391053
000280 be cb c1 3d d4 0e 98 3d a5 1f 08 3c c0 6c 32 3d
       0.09462689 0.07424703 0.008308326 0.043560743
000290 26 99 3f 3e 3f 7f 02 3e 5d 8e 14 3e 17 58 9a bb
       0.18710765 0.12743853 0.14507432 -0.004710208
0002a0 dc 50 1e 3e 58 f1 dc 3d f1 22 86 3d b5 14 39 3e
       0.15460533 0.1078822 0.06549633 0.18074305
0002b0 14 c3 bf 3d 4c 9c f8 3d 44 3a 79 be e2 1b 3e be
       0.0936338 0.12139186 -0.24338633 -0.18565324
0002c0 5e d8 2e be ee 46 2c bf 0a cc 96 bd 60 12 4f bd
       -0.17074725 -0.6729573 -0.07363136 -0.050554633
0002d0 4e 62 55 bd 8f c4 19 bd a0 9b c9 3c 0f 4b 1c bd
       -0.052095704 -0.03754097 0.02461034 -0.03815752
0002e0 cc d8 2a 3b 65 b7 0e 3d 3a 8f ac 3d 39 4c fa 3d
       0.0026069162 0.034842867 0.08425756 0.122215696
0002f0 e3 57 b9 37 57 b8 42 3c df d7 1e bc fa a2 ed bc
       2.2094644e-05 0.01188477 -0.009695022 -0.029008377
000300 64 1d d0 3d d8 4c 33 bd b1 23 28 be 3c e8 95 3c
       0.10161856 -0.043774456 -0.16419865 0.018299215
000310 37 c3 f0 bc 8f 24 a8 3c b7 3b 3f 3b 5e c0 ee bd
       -0.02938996 0.020525245 0.002917988 -0.11657785
000320 a1 c2 37 be 2d ad d1 3d 77 6f 63 bd 70 2f a6 bc
       -0.17945339 0.10238109 -0.055526223 -0.020286292
000330 78 16 e4 3d 6f 5a 9c bd 32 26 e8 3d 90 cc f5 3d
       0.11137098 -0.07634436 0.1133541 0.12001908
000340 43 e9 18 3e c1 11 fe 3c b2 54 34 3e 41 2c 86 3d
       0.14932732 0.031014325 0.17610434 0.065514095
000350 66 0d 12 be 12 e8 37 bd 71 06 23 bf fd 2b 14 3e
       -0.14262924 -0.044899054 -0.63681704 0.14469905
000360 c4 f5 8a 3d 2d f0 90 bd 38 a2 99 bd 04 64 aa be
       0.06785157 -0.0707706 -0.07501644 -0.3327943
000370 a6 b8 17 3c 72 56 e5 3c f4 44 74 bd b6 b0 cc 3c
       0.009260332 0.027995322 -0.05963607 0.024986606
000380 69 84 22 3d d5 fa 82 b8 08 b6 6f bd 57 b4 48 be
       0.039677057 -6.245604e-05 -0.058523208 -0.19600044
000390 d8 90 74 3e bb d0 f6 3d 20 03 8b bb 56 95 c2 be
       0.23883379 0.12051531 -0.004242316 -0.3800456
0003a0 ed ee df bd 94 e8 99 3c da 33 49 3d e9 d2 16 bc
       -0.10934243 0.01878766 0.049121715 -0.009205558
0003b0 53 fa 97 bd 15 b4 1d 3d cb 7f 99 3d 88 50 03 3e
       -0.074207924 0.038501818 0.07495078 0.12823689
0003c0 05 16 d2 3c 4b 3d 8f bd 1d ea 04 be cd 5c d1 3d
       0.025645265 -0.069941126 -0.12979932 0.102227785
0003d0 75 f2 d4 3d 18 24 3c 3d 21 3b 0a be 50 f1 75 be
       0.103978075 0.04593286 -0.13499118 -0.24017835
0003e0 4d 30 d8 3d fb ed 9a 3c ef 96 c6 bd 09 35 b7 be
       0.10556088 0.018912306 -0.09696757 -0.3578265
0003f0 38 03 9e be 1f 39 e9 3d 64 cd 86 3d b7 a7 da bc
       -0.3086183 0.11387848 0.06582144 -0.0266913

model.0.0.0.0.bias f4 [64]
000000 c0 76 94 bd 48 c3 9e 3e 53 93 b7 3c c7 65 2e bd
       -0.07249212 0.31008363 0.022409117 -0.04257753
000010 f0 82 5b bd 03 d7 06 bd a4 0d f8 bd b3 7b c1 3d
       -0.05359167 -0.032919895 -0.12111977 0.09447422
000020 90 a3 88 3e 4a da c0 bd 15 3f 2f 3d 4c f7 89 bd
       0.26687288 -0.09416635 0.04278477 -0.06736621
000030 fd 6b 41 3e 36 35 02 bd 32 d4 8d bd 52 40 41 bd
       0.1888885 -0.031789027 -0.06925239 -0.04718048
000040 9f ab 41 3e 59 dd d8 3d d1 0e 8e 3c dd 0f 28 3e
       0.18913125 0.10589094 0.01734105 0.16412301
000050 ad bd 17 3e 7e 40 01 3e 23 77 49 3e 78 50 80 3d
       0.1481845 0.12622258 0.19674353 0.06265348
000060 27 72 02 3d 1c 67 3e bd e7 53 1b bd 0d de ea 3d
       0.031847145 -0.04648505 -0.037921812 0.11468134
000070 30 6c d3 3b 6d 04 9e bd d5 bd e6 3d 15 40 d4 3b
       0.006452106 -0.07715688 0.11266676 0.0064773657
000080 f2 6d 0c 3e f5 b2 e9 3d 5d f0 1b 3e 4b 17 b3 3c
       0.13713816 0.114110865 0.1522841 0.021861693
000090 15 33 c5 3d 52 c8 84 bd a2 f1 66 3e 0b 9e da bc
       0.09628884 -0.064835206 0.22553113 -0.026686689
0000a0 5a df 26 3e 4d cd 22 3e ff 0a 32 3d ff 89 c8 3d
       0.1629614 0.15898629 0.043467518 0.09791946
0000b0 f3 aa d6 bd ac b5 9e 3d a2 29 6f 3e 25 d5 85 3e
       -0.10481825 0.07749495 0.23355725 0.2613918
0000c0 b4 43 e7 3d 94 2d fe 3d 1c 1d 69 3e 71 62 81 3d
       0.1129221 0.12411037 0.2276501 0.06317604
0000d0 84 d7 85 bd 3d 48 5a bd 45 57 23 3e 59 71 99 3c
       -0.06535247 -0.053291548 0.1595126 0.018730806
0000e0 d6 50 73 3d 60 dd 0e be fe c0 f7 3c 45 6a f0 3d
       0.059403263 -0.13951635 0.030243393 0.11739019
0000f0 47 7c 49 3c e0 44 f0 bd 13 cd 8e bd 0a b8 e1 bc
       0.012297696 -0.11731887 -0.069727086 -0.027553577

model.0.0.1.weight f4 [48, 64]
000000 47 fb 1d 3d 48 9b a8 bd 1b 81 39 bb ff 82 1c 3e
       0.038569715 -0.082327425 -0.0028305713 0.15284346
000010 06 93 12 be ad ec 92 bd ba 82 9d 3d 54 39 ce bd
       -0.14313897 -0.071740486 0.0769095 -0.10069528
000020 33 36 a9 bc e1 3d 0b be 2b cb 74 3d 6a da 21 bd
       -0.020655727 -0.13597824 0.05976407 -0.039514937
000030 3e db b1 bd cd 9e 80 bd 98 d9 b1 bd ed 63 da bd
       -0.08684395 -0.06280289 -0.08684081 -0.106635906
000040 45 00 81 3d 32 67 13 be d4 fb a4 bd 31 08 02 3e
       0.062988795 -0.14394835 -0.08055845 0.12698437
000050 55 cc 7e bd 32 5a c9 bc 9f 58 d4 3d e4 77 df 3d
       -0.062206585 -0.024579141 0.10368466 0.10911539
000060 2e de d6 3d f6 8b 83 3d 4d 7d 46 3d c5 56 f5 bd
       0.10491596 0.0642318 0.04845934 -0.119794406
000070 50 47 58 bd 04 f0 dc bc e3 ad c9 bc b4 28 a7 3c
       -0.052802384 -0.026969917 -0.024619048 0.020405151
000080 54 8d 02 3e b9 a9 86 bd 45 51 f9 3d e7 d0 fe bd
       0.12749225 -0.06575341 0.12173704 -0.12442189
000090 d5 da a9 3d a5 a9 ad bb 92 b8 0e bd 0a c7 11 be
       0.08293692 -0.005299764 -0.03484399 -0.14236084
0000a0 d9 87 fa bc a7 5f cd bd d3 d7 c9 bd d6 58 bd 3d
       -0.030582355 -0.1002801 -0.09855618 0.0924546
0000b0 db 94 5b be 6e 04 91 bd fb 31 dd bd da 3d d6 3c
       -0.21443503 -0.07080923 -0.10800549 0.02615254
0000c0 95 9e a0 3c 18 bf 7c 3d 30 7e 47 3d e0 67 f1 bd
       0.019606868 0.06170568 0.048704326 -0.11787391
0000d0 2e b2 f1 bd ec e2 d9 3c 41 4b 70 3d a3 12 2e bd
       -0.11801563 0.026597463 0.058665518 -0.042498242
0000e0 0f e2 cd bd a5 c1 85 bd 72 26 53 bd e2 2c 8a bd
       -0.10052883 -0.065310754 -0.051550336 -0.06746842
0000f0 a7 a7 cc 3d 20 9f 0e 3d c5 86 44 be 67 b6 33 be
       0.09992915 0.034819722 -0.19192035 -0.1755005
000100 91 f2 68 3b cb 8a 27 3e 5b 0b d1 3d f8 22 80 bd
       0.0035544971 0.16361539 0.10207244 -0.0625667
000110 a9 85 f8 3b 46 2e 04 bc f6 da a6 bc 3c c4 70 bd
       0.007584293 -0.008067673 -0.02036808 -0.058780894
000120 2e d7 e5 3d 36 3f 59 bd f6 f1 ba 3d 3c 56 ea 3c
       0.11222683 -0.0530388 0.09128182 0.028605573
000130 ff 6a e7 3c 22 e2 f1 3d 17 a4 a1 3d 2c ff de bd
       0.028249262 0.118107095 0.07892626 -0.10888514
000140 07 92 f8 3d e7 9b 0b 3d 7a 74 1a 3d 2b ff 01 3e
       0.121372275 0.034084227 0.037708737 0.12694995
000150 ec 8f 27 3e 90 42 a2 3c a0 22 29 3e f0 08 d5 3d
       0.16363496 0.01980713 0.16517115 0.10402095
000160 73 b2 f0 3d 39 a0 03 3d 6e d0 f9 3d f1 9b e2 3d
       0.117527865 0.032135222 0.12197958 0.110649
000170 44 2f 73 3d 3e f8 e8 3c e4 e2 58 3e 19 ee 49 bd
       0.059371248 0.028438684 0.21180302 -0.049299333
000180 d4 eb 90 3d 4a f2 c2 bb 14 53 01 bd 50 ec bc bd
       0.07076231 -0.0059492933 -0.03157337 -0.092247605
000190 97 eb 7e bd 6c 1f a6 3d cd 09 77 3d 41 c0 8d 3c
       -0.062236395 0.08111462 0.06031208 0.017303588
0001a0 10 0d bd 3d 82 75 32 3c 75 11 fb bc b7 46 72 3c
       0.09231007 0.010892274 -0.030647973 0.014787368
0001b0 a8 a0 83 3d 79 66 a2 3b 63 41 23 bc 2d 22 3b 3e
       0.06427127 0.0049560633 -0.00996432 0.18274756
0001c0 6e fb 1e bd d6 4d 9f 3d cd 8f ed 3d 30 ef 64 3d
       -0.038814 0.07778518 0.115996934 0.05589217
0001d0 75 50 71 bd e9 93 68 3e d0 3b 5a 3d f6 ff 37 bc
       -0.05891462 0.22712673 0.053279698 -0.011230459
0001e0 d1 d7 34 3e fd 64 c0 bd 0a d7 f4 3d 22 5d df 3d
       0.17660452 -0.09394262 0.11955078 0.109064355
0001f0 c6 8b a2 3c 80 fa 42 bc 8a 11 48 3d bc 3d b7 3d
       0.01984204 -0.011900544 0.04884485 0.08947322
000200 55 cc b9 3d 4e 5f b5 3d 4a 20 d4 3c eb 2e 7b be
       0.09072176 0.088560686 0.025894303 -0.24529617
000210 0b 23 87 3d a6 62 87 ba ee e8 f0 3d 20 00 2b bd
       0.06598481 -0.0010329082 0.11763178 -0.041748166
000220 a2 69 0c 3d 84 e4 f3 bc a5 38 93 3e 62 03 12 3e
       0.034280427 -0.02977205 0.28754154 0.14259103
000230 82 4c 5f bd 7c c0 17 be dc 1c 1a be 74 f5 8d bd
       -0.054516323 -0.1481952 -0.15050071 -0.06931582
000240 d8 1c c4 bd f7 70 01 3e 43 07 0b bc 95 89 ab bc
       -0.09575814 0.12640749 -0.008485618 -0.020939628
000250 7e a9 ee 3c b9 40 9a 3d 45 74 8c 3c ff 1a 82 bd
       0.029133555 0.07531876 0.017145285 -0.06352805
000260 ad 38 8a 3c 18 01 36 3d 5a c8 36 be c9 89 16 3e
       0.016872728 0.044434637 -0.17849866 0.14700998
000270 fb ed ee bd 41 8a 8c bd 00 9d c2 bd fb d2 68 bd
       -0.11666485 -0.06862307 -0.095026016 -0.05684183
000280 47 98 c0 3c f5 ef c1 bd 79 e9 35 bd 67 8f ae bc
       0.023510111 -0.09469596 -0.04441211 -0.021308614
000290 1c 23 0c bd 5a 7b f2 3c 86 0e 98 bc 6c c4 04 bd
       -0.03421317 0.029599834 -0.018561613 -0.032413885
0002a0 64 7e ae 3d 26 4e f5 3d 5f 72 91 3b ad 93 90 bd
       0.08520201 0.11977796 0.004438683 -0.07059417
0002b0 80 72 ca 3c 99 18 b7 3b 93 c3 14 3e 14 d9 4d bd
       0.024712801 0.005587649 0.1452773 -0.05025585
0002c0 42 f3 95 3d be 7d 53 3c 73 ca d1 bd ab cb 4f 3d
       0.07321788 0.012908397 -0.10243692 0.050731342
0002d0 ba e9 da 3c 42 e2 bc be 84 7f 8d 3d ba b9 8a 3d
       0.026722778 -0.3689137 0.06909087 0.06773706
0002e0 46 60 08 be 76 b9 c1 bd e0 58 c2 3c d9 75 b7 3d
       -0.13317975 -0.09459202 0.02372402 0.089580245
0002f0 43 1c 5d be f7 b4 68 bb 27 ef ca bd 63 6b fd 3c
       -0.21592812 -0.0035508254 -0.09908896 0.030934995
000300 f2 6d 90 bd ca 68 67 3c e8 66 6b bd 5d 56 6e be
       -0.070522204 0.014124105 -0.057471186 -0.23275132
000310 bd aa a1 bc 48 1f a6 bc 09 ac 17 be 4d c4 5f bc
       -0.019734735 -0.020278588 -0.1481172 -0.013657642
000320 63 f5 e1 3b 5e 8e 94 bd 13 2a 26 3e c0 10 ce bd
       0.0068957075 -0.07253717 0.16226988 -0.100617886
000330 df 08 84 3e 43 aa 65 bc 63 b4 a4 3d 08 ff f7 bd
       0.25788018 -0.014017644 0.080422185 -0.1210919
000340 71 6f 50 bd 37 d3 b2 3d 3e 6b 3a bd 76 17 1c 3d
       -0.05088753 0.08731692 -0.04551243 0.03810831
000350 c3 54 47 3e 42 60 23 3d 45 37 3d bc e5 2b 9f bd
       0.19465928 0.03988672 -0.011548822 -0.07772044
000360 ed c6 8b be e4 df d5 bc 87 49 0b 3e 41 64 10 3d
       -0.27300206 -0.026107736 0.13602267 0.03525186
000370 1e d8 c9 bb 0a 06 67 bc bd 81 ab bc ff 8f 8a 3b
       -0.0061597964 -0.014100561 -0.020935887 0.0042285915
000380 9a 7e 91 bd 6e e0 7a bc 37 de 88 bd 9a b9 8b 3d
       -0.071042255 -0.015312297 -0.06683009 0.0682251
000390 04 9b 2c 3e 2e 85 bf bc ad b4 12 bd 2b f3 a9 bb
       0.16856009 -0.023378935 -0.035816837 -0.0051864586
0003a0 92 d4 5b bc 48 f0 98 bc d1 30 08 bd 78 10 86 bc
       -0.01341738 -0.018669263 -0.03324968 -0.016365275
0003b0 20 91 33 be ae c1 50 3e a7 13 b3 bc 0c 9c 0f bd
       -0.1753583 0.20386383 -0.021859957 -0.035060927
0003c0 27 9e f3 3d ca 3c a9 bd 90 a3 0c 3e 0b 04 fc bd
       0.118953995 -0.08263548 0.13734269 -0.12305459
0003d0 e7 31 2e 3e 63 4f 99 bc 14 51 0a be 8d b6 f0 3d
       0.17011224 -0.018714612 -0.13507491 0.11753569
0003e0 af 69 7e be c5 c2 84 3d 64 3f 2b be cb 65 c6 3d
       -0.24845003 0.06482462 -0.167234 0.09687384
0003f0 51 77 87 bd eb c6 12 bd f2 d0 cc bd 9e f1 a7 3d
       -0.06614555 -0.035834234 -0.10000791 0.08200382

model.0.0.1.bias f4 [48]
000000 92 58 7e 3c 4a 64 20 3e 0c 49 31 3c 51 29 af bd
       0.0155240465 0.15663257 0.010820638 -0.08552802
000010 9f 3a 2b bd fa e4 ca bd 92 4c af bd c7 c4 01 be
       -0.041803952 -0.09906955 -0.085595265 -0.12672721
000020 c6 22 e6 3d 5c 4c aa bd 19 8d 3f 3d 3f 7e 1c 3b
       0.11237101 -0.08315346 0.04676542 0.002387896
000030 a1 65 d4 bd 63 a3 4d bb 4e 68 c9 3d b7 9b ac bd
       -0.10370947 -0.0031377904 0.09834348 -0.08428138
000040 c1 72 4f bd 88 d1 50 3d 49 1c 08 3e 5f f0 56 3e
       -0.050646547 0.050981075 0.1329204 0.20990132
000050 1f 4e 1f 3e 60 03 92 3d bc b4 5a bd dc fe be 3d
       0.15557145 0.0712955 -0.053395018 0.09325954
000060 ad 30 d7 bc da 96 90 3d ab 96 e6 bc f1 ae 75 3d
       -0.026268328 0.07060023 -0.028148016 0.05998129
000070 c2 b8 4f bd 76 27 0d 3e 3a 82 2a 3c 8e 03 01 3e
       -0.05071331 0.13784584 0.010407025 0.12599012
000080 bd ff 16 bd d7 28 8e bd 28 8f 44 3e 2d fb 17 3d
       -0.036864985 -0.06941383 0.19195235 0.037104774
000090 e7 3b 95 3c 2d 88 6c 3e 35 68 06 3e be 5c 46 3c
       0.01821704 0.23098822 0.1312569 0.012107072
0000a0 df 2e 04 3e ac 83 47 3e 1e 37 2d bd 7f 1e d4 3c
       0.12908505 0.19483823 -0.042288892 0.025893448
0000b0 78 ff 21 3d 5d 57 9c 3d f5 a0 26 3d b8 33 18 3d
       0.039550275 0.07633851 0.040680844 0.037158698

model.0.1.weight f4 [24, 48]
000000 7d 37 d4 3d 07 9d 0d be 41 47 ce 3d ee a2 82 3d
       0.10362146 -0.13829432 0.10072184 0.063787326
000010 cf 73 06 3d 2c f3 23 bd 92 30 e5 bd 7c 87 05 3e
       0.032825287 -0.04002683 -0.11190905 0.13039964
000020 0c 4e b8 bd 1a c1 62 bc de 9a c7 ba 76 01 f9 bd
       -0.08999261 -0.013839984 -0.0015228649 -0.12158482
000030 3e 2e 09 be e8 fa 6c bc 6b b8 06 3e e5 17 8f bc
       -0.13396546 -0.014464118 0.13156287 -0.017467448
000040 71 15 aa 3d 03 5a 05 3e b3 75 14 bd cf 96 84 bd
       0.08304871 0.13022618 -0.03624506 -0.06474077
000050 2d 10 af 3d dc 6f 9d 3d 18 18 c0 3d ff 3b a5 3d
       0.08548007 0.07687351 0.093795955 0.08068084
000060 d8 fb 26 bd 70 d6 eb bd 25 21 bd 3d e3 4d a7 3d
       -0.04076752 -0.1151551 0.092348374 0.081691526
000070 08 12 fd 3d 9d b5 0b bd b5 2a 56 bd 11 17 92 3c
       0.12356955 -0.034108747 -0.052286822 0.017833265
000080 d7 1a d1 bd 15 33 22 3d 23 43 5b bc 59 22 f2 bd
       -0.102101974 0.039599497 -0.013382706 -0.118229575
000090 4d f4 0b be c5 db 0a be bf c9 c8 bd 21 f9 bc bc
       -0.13667412 -0.13560398 -0.09804105 -0.023068013
0000a0 4d 1e 15 3d 37 f6 f9 bd 19 4d 85 bd 87 9a b9 bd
       0.03640585 -0.12205165 -0.06508846 -0.09062677
0000b0 80 57 5d bd ad dc 0c 3e 17 bd a1 bd 18 0a 0b be
       -0.054038525 0.13756056 -0.07897394 -0.13578069
0000c0 fe 49 ef bc ac d0 c6 bd 71 14 46 bd 6a 2f d8 3c
       -0.029210087 -0.0970777 -0.04835934 0.026389796
0000d0 a6 d1 00 be 4b 74 24 3d 0b 52 65 3d 9d e6 c3 bd
       -0.12579975 0.040149968 0.055986445 -0.0956547
0000e0 65 e6 82 3d 9a 7a a0 bd 16 3b 95 3d 91 5f 99 3d
       0.063916005 -0.078358844 0.072866604 0.07488931
0000f0 e5 77 8a bd 49 a7 a1 3d 0c 8b 5b 3d 37 82 04 be
       -0.06761149 0.07893235 0.053599402 -0.12940298
000100 69 ac 05 3e f8 1a 25 be 0f fe 7a 3d aa 0a d1 3d
       0.1305405 -0.16123569 0.061277445 0.10207112
000110 2a 1c 22 bd ac 53 e8 bd 65 6c 71 bd 4d bd 2b bd
       -0.03957764 -0.11344084 -0.058941264 -0.04192858
000120 00 18 75 bd 51 94 88 bd 42 54 e9 3d e2 50 1f be
       -0.05983734 -0.06668914 0.11393024 -0.15558198
000130 cc c9 fd bd 59 7d 4e 3d 18 8c 61 3d 36 fc c0 3d
       -0.12392005 0.05041251 0.055065244 0.094231054
000140 31 b9 b5 3d 11 49 a4 bb 65 fb 70 3d 01 20 8f 3c
       0.08873213 -0.005013593 0.0588335 0.017471315
000150 52 7f 80 3d c4 4b 1b bb 12 d8 02 be c2 6a 01 be
       0.062742844 -0.0023696283 -0.12777737 -0.12638381
000160 9f 02 b9 bb 68 12 06 be fe 72 d4 bd 17 7f bd 3d
       -0.0056460644 -0.13092959 -0.103734955 0.09252756
000170 1a ab bb bd 27 bb 32 bd 0f 53 06 be 69 d9 6c bd
       -0.091634944 -0.043635514 -0.13117622 -0.057824526
000180 df be 94 3c d4 50 0c be ba 2f 08 be 33 16 73 3e
       0.01815742 -0.13702708 -0.13299456 0.23738937
000190 1e c8 b8 bd 99 a7 a9 3d fe a9 68 be cf 6b 39 3d
       -0.09022544 0.0828392 -0.22721097 0.04526883
0001a0 b3 79 1c 3f 15 08 e6 bd 29 66 3d bc 95 99 18 bd
       0.611232 -0.1123201 -0.011560001 -0.037255842
0001b0 dd 81 3b be 37 f5 13 3d 1a 54 f9 bd 36 a4 d9 bd
       -0.18311258 0.036122527 -0.12174244 -0.10627024
0001c0 25 c0 04 be 2f 93 75 be a3 c0 c6 3e 20 cd 37 bd
       -0.12963922 -0.23981927 0.38818845 -0.044873357
0001d0 24 02 d3 bd 5e 79 17 bd f6 0d 75 3d c5 42 bf 3e
       -0.10303143 -0.03698098 0.059827767 0.3735563
0001e0 99 92 ff be ef 8f f1 3d 81 df 28 be 8b 3f 80 be
       -0.49916533 0.11795031 -0.1649151 -0.2504848
0001f0 76 06 1b bd b3 12 aa 3d 30 d7 3e 3d ab 81 7e bd
       -0.03784796 0.08304348 0.046591938 -0.06213538
000200 05 dd 20 be 90 05 71 3c 03 70 6b 3d 30 0d 95 3d
       -0.15709312 0.014710799 0.05747987 0.07277906
000210 b4 07 d9 ba 6f 03 97 3c d0 fd ff 3d d2 92 2d 3d
       -0.0016558082 0.018434254 0.12499583 0.042376347
000220 23 58 80 bc 76 c5 a5 3d d0 c1 fe bc eb da 20 be
       -0.015667027 0.08094303 -0.031098276 -0.1570851
000230 e7 d0 35 3e c1 5d b2 bd 27 18 26 bd fe d1 12 3e
       0.17755471 -0.087092884 -0.040550377 0.14337918
000240 9a df 60 3d 71 0f dd bd 09 35 12 be 05 8d 44 3d
       0.054900743 -0.10793961 -0.14278044 0.04798605
000250 61 52 d7 3d 9f fd 02 3e 8e e0 01 bd ed d7 0d 3e
       0.105137594 0.12792061 -0.031708293 0.138519
000260 34 a3 03 be e3 d0 7a 3d 6a 3b db bd 9f e3 26 be
       -0.12855226 0.061234366 -0.10704692 -0.16297768
000270 15 7f 88 bd 05 1c 95 bd 0c ab 32 be 0d bf 97 bb
       -0.06664864 -0.07280735 -0.17448062 -0.0046309293
000280 e9 ef 55 bd cc 68 e3 3d 11 ca 40 bd c4 6e 6a bb
       -0.05223075 0.11103973 -0.047067706 -0.0035771588
000290 1d 50 86 3d 44 ee f4 3d a3 57 eb bd c8 fb 9d bd
       0.06558249 0.11959508 -0.11491325 -0.07714039
0002a0 4d b7 65 3b ce 3c e3 bc 1f 09 c3 3c b0 20 f6 bd
       0.0035051883 -0.027738955 0.02380806 -0.120179534
0002b0 0c 3a a8 bc 15 83 d7 bb e5 7c a6 3d 98 e2 07 be
       -0.020535491 -0.0065769055 0.081292905 -0.13270032
0002c0 6c 9c 35 3d f7 f8 e9 3d 4c 74 14 be e6 2d ab 3d
       0.04433863 0.114244394 -0.14497489 0.08358364
0002d0 43 b5 0a 3e 15 41 09 bc fa 3d d0 bd 11 5f 9d 3d
       0.13545708 -0.008377333 -0.10168071 0.07684148
0002e0 03 b1 94 3d 7b 57 c8 3c 75 4b a5 3d 58 40 1d be
       0.07260325 0.024455776 0.08071033 -0.15356576
0002f0 60 66 cf bc f1 12 08 3e fb 7f ec bd 87 b8 b8 3d
       -0.02531737 0.13288476 -0.11547848 0.09019571
000300 58 59 52 3d c2 2a 3a 3c 57 ff 18 bc e8 c5 bc 3d
       0.051354736 0.011362733 -0.0093382215 0.09217435
000310 2d 10 04 be 0e 6e b5 3d 60 c8 b8 3d a7 d6 a6 bd
       -0.12896796 0.08858882 0.090225935 -0.081464104
000320 4b 6a 79 3e 3c 98 dc 3d 46 f7 21 bd e9 11 f9 3d
       0.24356954 0.10771224 -0.03954246 0.12161619
000330 c3 1a 3a bc 8e 4d e6 3c d9 31 85 3d cb 1b fa bd
       -0.01135892 0.028113153 0.06503648 -0.12212332
000340 67 d8 40 bd 65 7c 5b 3d e0 27 ca 3e 3d 40 10 3e
       -0.047081377 0.05358543 0.39483547 0.14087005
000350 9e 4f df 3d 8d 06 02 3e 51 e2 11 be 48 6d a3 3e
       0.10903858 0.12697811 -0.14246489 0.31919312
000360 ee 6e 8b 3c a9 70 52 3c ca f5 f7 3d 0f b3 c8 bd
       0.017020669 0.012844243 0.121074274 -0.09799778
000370 28 48 ad 3d da a2 f9 3d 90 8c c6 bd 18 e2 9c 3d
       0.08461028 0.121892646 -0.09694779 0.076603115
000380 a1 88 15 be 99 69 8e bd 12 c4 a1 3d ef 2d c3 bd
       -0.14602901 -0.06953735 0.078987256 -0.095302455
000390 d8 1e 64 3e cc 25 03 3e 8f 5a 2d 3e 77 a9 d2 3d
       0.22277391 0.12807387 0.16929077 0.10286229
0003a0 e1 37 af 3d 93 a0 64 bd 2c f5 31 3e a6 bf 54 be
       0.0855558 -0.055817198 0.17378682 -0.20776233
0003b0 f2 70 32 3e 68 31 15 bd 27 9f 7f 3d 93 35 0f 3b
       0.17425898 -0.03642407 0.06240764 0.0021852
0003c0 b2 2f 5f be 1c 99 21 3c d4 fa 85 3d 17 95 c3 3a
       -0.21795538 0.009863164 0.06541982 0.0014921752
0003d0 76 60 04 3e 75 00 67 be 06 32 28 bc 07 10 18 3e
       0.12927422 -0.22558768 -0.010265833 0.14849864
0003e0 d7 fa e2 bd 9c 4d 05 3e 09 38 d9 3d d3 a8 bc bd
       -0.11083 0.13017887 0.10606391 -0.09211888
0003f0 20 53 43 3d e1 e5 86 3d 68 d6 a0 bd 2d e5 47 3d
       0.047686696 0.06586815 -0.07853395 0.048802543

model.0.1.bias f4 [24]
000000 34 7f a8 bc 06 d6 7b 3d ec 36 88 3c 22 00 e4 3d
       -0.020568468 0.061483406 0.016627751 0.11132838
000010 f7 2b 35 3e 0a e6 aa bd 7b b3 41 3e 2a a7 34 bd
       0.17692553 -0.08344658 0.18916123 -0.044104733
000020 9c 26 ad 3d c4 51 f1 3d f6 df fe bc c2 78 18 3e
       0.0845463 0.11783174 -0.031112652 0.14889815
000030 e1 47 03 be e8 ea 00 3e b8 82 b7 bd c5 ef fc bd
       -0.12820388 0.1258961 -0.089604795 -0.1235042
000040 df e9 61 bc dd 9a 0b 3e d9 78 9a bd 0d fe 60 3d
       -0.013788669 0.13633294 -0.07542581 0.05492978
000050 69 6c c9 bc 09 a4 a1 3c d9 29 a8 3c 3d 40 0b bd
       -0.024587827 0.019731538 0.020527767 -0.03399681

model.1.weight f4 [4, 24]
000000 42 f2 43 3d ea 42 ce bd 53 2f 96 3e b1 e0 2e be
       0.047838457 -0.100713566 0.2933298 -0.170779
000010 9e 25 85 3e b4 f4 ad 3d 48 c4 6c 3e bd f7 36 be
       0.26005262 0.08493939 0.2312175 -0.17867942
000020 bf 3a b0 bd 65 8d 84 bd 7d 53 89 3e 94 b3 39 3e
       -0.08604955 -0.06472281 0.2682151 0.1813491
000030 db ca f4 bd 88 a5 5e 3e 0a bb 50 be da 5f 81 bd
       -0.11952754 0.21742833 -0.2038385 -0.0631711
000040 d6 2b 65 3c 92 d7 3d 3e 2b 33 87 be 57 0d d9 bd
       0.013987502 0.18539265 -0.26406226 -0.105982475
000050 f0 fe 2a be f6 5d 8f be b9 b9 25 3e 8d a0 71 bd
       -0.16698813 -0.28001374 0.16184129 -0.058991004
000060 8e d3 2b be 6c 11 3f 3e 15 e3 ca 3e 48 15 e6 bd
       -0.1677992 0.1865899 0.39626375 -0.11234528
000070 c1 2a 4f 3e af e0 1e 3d 0d e1 63 3d 4a 63 37 3e
       0.20231153 0.038788494 0.055634547 0.1790897
000080 68 40 ec 3d 7e 3b 4b be 99 5b 7e 3e 46 45 35 3e
       0.11535722 -0.19846913 0.24839629 0.17702207
000090 90 38 a6 bd 3e 77 f1 3d e4 67 28 be 8d b0 9c bd
       -0.08116257 0.11790322 -0.16445881 -0.07650862
0000a0 92 f5 15 bd 81 9d 6b 3e 45 68 b5 bc 01 55 c2 3d
       -0.036611147 0.23009302 -0.022144446 0.094888695
0000b0 b9 52 04 bd 85 ba a2 bd bd 43 6f 3e 26 dc 35 3d
       -0.032305453 -0.07945732 0.23365684 0.044399403
0000c0 73 11 f8 39 e2 cc 60 bd 2e 89 42 3d 5b 24 3e be
       0.00047315247 -0.05488289 0.047494106 -0.18568556
0000d0 14 e9 09 bb 58 22 08 be 1a 42 68 3e 30 a6 4f 3c
       -0.0021043466 -0.13294351 0.22681466 0.0126738995
0000e0 07 df 38 3e b0 2a 13 3e 88 22 25 3c 74 53 a0 3d
       0.18053828 0.14371753 0.010079034 0.078284174
0000f0 ae 1f 8a be 61 b1 67 3e 54 78 09 bd 7e 06 ee bd
       -0.26977295 0.22626258 -0.03356202 -0.11622332
000100 cf c6 7c be 47 99 24 3e 11 49 eb bc d0 13 70 3e
       -0.24685214 0.16074096 -0.028721364 0.23445058
000110 c3 b8 29 be 81 f7 f1 bd c4 99 5e 3e e2 8f 27 bd
       -0.16574387 -0.11814786 0.21738344 -0.0409087
000120 c6 fe 35 be f2 17 8a 3d 69 ca 47 3e 60 90 a1 3d
       -0.1777297 0.067428485 0.19510807 0.078888655
000130 f0 7a a3 3d ed ce 96 bd 10 94 12 3e 3b ea c5 bd
       0.07982433 -0.07363687 0.14314294 -0.096638165
000140 14 9f 86 be 0a 54 0f be 92 90 82 3e 24 d1 73 3e
       -0.26293242 -0.13996902 0.25500923 0.2381025
000150 e6 86 03 3e 07 9e 16 3e 6e 93 01 3e b1 a0 45 3e
       0.12844428 0.1470872 0.12653896 0.1929958
000160 fd a7 0f be 46 9b 94 bd e6 a0 80 3e cb 68 c9 bc
       -0.14028926 -0.072561786 0.25122756 -0.024586102
000170 ff 7d 83 bd 34 9e 35 be c6 9c 7c 3e 77 9e df 3e
       -0.06420516 -0.17736131 0.2466918 0.43675587

model.1.bias f4 [4]
000000 fc d9 aa bd cd fc 4b 3d e6 d0 bb bd 72 d5 2b 3e
       -0.083423585 0.049801636 -0.091707036 0.16780642
